…
2024-03-27 21:03:41.020913: W tensorflow/core/common_runtime/gpu/gpu_bfc_allocator.cc:42] Overriding orig_value setting because the TF_FORCE_GPU_ALLOW_GROWTH environment variable is set. Original config value was 0.
2024-03-27 21:03:41.021101: I tensorflow/core/common_runtime/gpu/gpu_device.cc:1616] Created device /job:localhost/replica:0/task:0/device:GPU:0 with 17735 MB memory:  -> device: 0, name: NVIDIA A10G, pci bus id: 0000:00:1d.0, compute capability: 8.6
Model: "sequential"
_________________________________________________________________
 Layer (type)                Output Shape              Param #   
=================================================================
 conv2d (Conv2D)             (None, 32, 32, 32)        896       
                                                                 
 conv2d_1 (Conv2D)           (None, 30, 30, 32)        9248      
                                                                 
 max_pooling2d (MaxPooling2D  (None, 15, 15, 32)       0         
 )                                                               
                                                                 
 conv2d_2 (Conv2D)           (None, 15, 15, 64)        18496     
                                                                 
 conv2d_3 (Conv2D)           (None, 13, 13, 64)        36928     
                                                                 
 max_pooling2d_1 (MaxPooling  (None, 6, 6, 64)         0         
 2D)                                                             
                                                                 
 flatten (Flatten)           (None, 2304)              0         
                                                                 
 dense (Dense)               (None, 512)               1180160   
                                                                 
 dense_1 (Dense)             (None, 10)                5130      
                                                                 
=================================================================
Total params: 1,250,858
Trainable params: 1,250,858
Non-trainable params: 0
_________________________________________________________________
Epoch 1/10
2024-03-27 21:03:43.450022: I tensorflow/stream_executor/cuda/cuda_dnn.cc:384] Loaded cuDNN version 8200
2024-03-27 21:03:46.595945: I tensorflow/stream_executor/cuda/cuda_blas.cc:1614] TensorFloat-32 will be used for the matrix multiplication. This will only be logged once.
…
